Perform shuffle on the dataset
Namespace(device='cuda:2', data='data//PEMS03', input_dim=3, channels=128, num_nodes=358, input_len=12, output_len=12, batch_size=64, learning_rate=0.001, dropout=0.1, weight_decay=0.0001, epochs=300, print_every=50, save='./logs/2023-09-24-13:26:16-', es_patience=100)
Ranger optimizer loaded. 
Gradient Centralization usage = True
GC applied to both conv and fc layers
The number of parameters: 1046660
STAMT(
  (Temb): TemporalEmbedding()
  (tconv): TConv(
    (conv): Conv2d(128, 128, kernel_size=(1, 4), stride=(1, 1))
    (relu): ReLU()
    (dropout): Dropout(p=0.1, inplace=False)
    (tcn): Sequential(
      (0): Sequential(
        (0): Conv2d(128, 128, kernel_size=(1, 4), stride=(1, 1))
        (1): ReLU()
        (2): Dropout(p=0.1, inplace=False)
      )
      (1): Sequential(
        (0): Conv2d(128, 128, kernel_size=(1, 4), stride=(1, 1))
        (1): ReLU()
        (2): Dropout(p=0.1, inplace=False)
      )
      (2): Sequential(
        (0): Conv2d(128, 128, kernel_size=(1, 4), stride=(1, 1))
        (1): ReLU()
        (2): Dropout(p=0.1, inplace=False)
      )
      (3): Sequential(
        (0): Conv2d(128, 128, kernel_size=(1, 4), stride=(1, 1))
        (1): ReLU()
        (2): Dropout(p=0.1, inplace=False)
      )
    )
  )
  (start_conv): Conv2d(3, 128, kernel_size=(1, 1), stride=(1, 1))
  (SpatialBlock): Encoder(
    (attention): SpatialAttention(
      (k): Conv(
        (conv): Conv2d(256, 256, kernel_size=(1, 1), stride=(1, 1))
        (relu): ReLU()
        (dropout): Dropout(p=0.1, inplace=False)
      )
      (v): Conv(
        (conv): Conv2d(256, 256, kernel_size=(1, 1), stride=(1, 1))
        (relu): ReLU()
        (dropout): Dropout(p=0.1, inplace=False)
      )
      (concat): Conv(
        (conv): Conv2d(256, 256, kernel_size=(1, 1), stride=(1, 1))
        (relu): ReLU()
        (dropout): Dropout(p=0.1, inplace=False)
      )
    )
    (LayerNorm): LayerNorm()
    (dropout1): Dropout(p=0.1, inplace=False)
    (glu): GLU(
      (conv1): Conv2d(256, 256, kernel_size=(1, 1), stride=(1, 1))
      (conv2): Conv2d(256, 256, kernel_size=(1, 1), stride=(1, 1))
      (conv3): Conv2d(256, 256, kernel_size=(1, 1), stride=(1, 1))
      (dropout): Dropout(p=0.1, inplace=False)
    )
    (dropout2): Dropout(p=0.1, inplace=False)
  )
  (fc_st): Conv2d(256, 256, kernel_size=(1, 1), stride=(1, 1))
  (regression_layer): Conv2d(256, 12, kernel_size=(1, 1), stride=(1, 1))
)
start training...
/home/lay/lay/work_a/Model/ranger21.py:115: UserWarning: This overload of addcmul_ is deprecated:
	addcmul_(Number value, Tensor tensor1, Tensor tensor2)
Consider using one of the following signatures instead:
	addcmul_(Tensor tensor1, Tensor tensor2, *, Number value) (Triggered internally at  ../torch/csrc/utils/python_arg_parser.cpp:1055.)
…
